Public/coffee_style.onnx (onnx, 53437 bytes, 109 tensors)

blocks.1.weight f4 [16, 3, 3, 3]
0.035043586 -0.021186402 -0.015862575 -0.02732062 0.031610608 -0.011851799 -0.044241708 -0.017479176
-0.021721207 0.055262957 0.08413267 0.07100427 0.060192354 0.09112884 0.08501224 0.038226254
0.08373378 0.092258535 0.0528649 0.06430314 0.051047094 0.055761136 0.07394758 0.06481409
0.06638603 0.090755075 0.09691068 -0.09424245 -0.11039106 -0.05713621 -0.09813149 -0.12651147
-0.054881714 0.0020961408 -0.04269953 -0.040676348 -0.00058732816 -0.07712932 0.043188736 -0.0010984039
-0.029074544 0.023730313 0.037456132 0.018728718 0.012292695 -0.1060334 -0.06780414 0.056091268
-0.09121916 -0.14668342 0.024573283 0.0671438 -0.05297165 -0.08571485 0.06492469 0.06569806
0.06565512 0.061910428 0.06512374 0.064490646 0.08022284 0.10129326 0.0775813 0.05865692
0.05911815 0.05651427 0.057230342 0.05302041 0.049987826 0.058261078 0.065625235 0.063656345
0.05744652 0.056318827 0.056693275 0.056275226 0.0556098 0.05405547 0.05595064 0.059442107
0.058520187 -0.05393519 -0.06253416 -0.04785139 -0.078045756 -0.008411857 -0.10108265 -0.060256094
-0.002563779 0.05721186 -0.05478966 -0.06012416 -0.053731885 -0.067895114 -0.1288984 -0.065751016
-0.060757563 -0.094820455 0.036202297 -0.054345306 -0.054889288 -0.046576403 -0.06609595 -0.09114658
-0.058095723 -0.058058698 -0.07952815 0.05283302 0.057775237 0.06391008 0.058879893 0.0550744
0.059164535 0.057717383 0.050680354 0.059348617 0.057933673 0.05878532 0.06296939 0.059818387
0.04290472 0.0605776 0.057824835 0.033877548 0.057932355 0.057805244 0.04666823 0.06872575
0.060959954 -0.047429778 0.07645091 0.063239485 -0.055885576 0.083371945 0.07047679 -0.06153001
-0.06031936 -0.06149462 -0.061467417 -0.059461076 -0.06087387 -0.059770003 -0.05990633 -0.06052111
-0.060025375 -0.05969876 -0.058538277 -0.060764212 -0.058657233 -0.06026763 -0.05888803 -0.05965035
-0.060048554 -0.05885587 -0.060023367 -0.060531564 -0.058276813 -0.060303237 -0.06060528 -0.059447873
-0.05955814 -0.060465064 -0.053033847 -0.083272636 -0.104013965 -0.011693254 -0.045393422 -0.09209908
0.009574913 0.027458843 -0.06719011 -0.051209595 -0.08670183 -0.1058235 -0.007632798 0.018085446
-0.09477052 -0.00075492996 0.02738638 -0.03344997 0.013811221 -0.07179032 -0.08736844 0.05337372
0.039248437 -0.030729378 0.028797869 0.032974623 0.006439797 0.11132404 0.10812799 -0.049226385
0.10094646 0.09809216 0.059077833 0.054567832 0.06412635 0.027883125 0.0932789 0.09355024
0.03779386 0.08920518 0.08533796 0.05942677 0.052021183 0.06639698 0.024576485 0.0124997385
0.020050814 -0.02578021 0.0369833 0.06869859 -0.0064369114 0.036522713 0.019903183 -0.0203869
0.05872145 0.059634097 0.06017846 0.059022512 0.060857173 0.059110336 0.06056052 0.05853406
0.059781145 0.059394136 0.061051864 0.058801424 0.05888811 0.06017303 0.061242472 0.060459368
0.05851072 0.0589963 0.061315823 0.061230324 0.05948633 0.06103051 0.061513055 0.06074986
0.059060935 0.061580844 0.060795974 0.05904513 0.05794501 0.05787285 0.058176648 0.059282564
0.059121538 0.060155135 0.061412804 0.058268096 0.059909042 0.058195855 0.05879951 0.05878036
00000000: dd89 0f3d 1b8f adbc 3bf2 81bc 7ecf dfbc
00000010: 207a 013d 0c2e 42bc cb36 35bd 7d30 8fbc
00000020: acf0 b1bc 695b 623d c04d ac3d b06a 913d
00000030: 428c 763d c2a1 ba3d e61a ae3d 2293 1c3d
00000040: 9e7c ab3d 0bf2 bc3d de88 583d 5db1 833d
00000050: c216 513d ca65 643d d471 973d 40bd 843d
00000060: 66f5 873d ccdd b93d 1b79 c63d 3002 c1bd
00000070: b514 e2bd a907 6abd 2af9 c8bd 398c 01be
00000080: a6cb 60bd 685f 093b b4e5 2ebd 3e9c 26bd
00000090: edf6 19ba faf5 9dbd ace6 303d 52f8 8fba
000000a0: bd2d eebc 1366 c23c 9a6b 193d f86c 993c
000000b0: 4d67 493c 0a28 d9bd e6dc 8abd f5bf 653d
000000c0: 1cd1 babd 2e34 16be e94d c93c b082 893d
000000d0: cdf8 58bd 448b afbd 3cf7 843d b48c 863d
000000e0: 3176 863d ca95 7d3d 985f 853d ac13 843d
000000f0: df4b a43d d772 cf3d f2e2 9e3d 3d42 703d
00000100: e025 723d 827b 673d 5d6a 6a3d ee2b 593d
00000110: 09c0 4c3d 2ba3 6e3d 8666 863d 425e 823d
00000120: 0b4d 6b3d 92ae 663d 3537 683d da80 663d
00000130: 1ac7 633d 4569 5d3d 802c 653d 9179 733d
00000140: ddb2 6f3d 25eb 5cbd e911 80bd d2ff 43bd
00000150: 74d6 9fbd e3d1 09bc 6c04 cfbd 18cf 76bd
00000160: 1305 28bb fc56 6a3d 1f6b 60bd c044 76bd
00000170: f715 5cbd 980c 8bbd f1fd 03be 78a8 86bd
00000180: ecdc 78bd 3a31 c2bd dc48 143d 2f99 5ebd
00000190: 97d3 60bd e6c6 3ebd 505d 87bd 0fab babd
000001a0: c8f5 6dbd f5ce 6dbd a8df a2bd 7067 583d
000001b0: baa5 6c3d 4ae3 823d 0b2c 713d b295 613d
000001c0: 8356 723d 1069 6c3d 3496 4f3d 8917 733d
000001d0: dc4b 6d3d e0c8 703d 18f6 803d 2004 753d
000001e0: dcbc 2f3d 3820 783d bcd9 6c3d 2fc3 0a3d
000001f0: 7a4a 6d3d 31c5 6c3d 3027 3f3d 16c0 8c3d
00000200: 25b1 793d ba45 42bd 4b92 9c3d b483 813d
00000210: 46e8 64bd e9be aa3d 2356 903d e406 7cbd
00000220: 6f11 77bd c8e1 7bbd 42c5 7bbd 758d 73bd
00000230: e156 79bd 64d1 74bd 5760 75bd fce4 77bd
00000240: 2bdd 75bd b086 74bd d5c5 6fbd e5e3 78bd
00000250: 9142 70bd 31db 76bd 9334 71bd ed53 74bd
00000260: 79f5 75bd da12 71bd 10db 75bd f2ef 77bd
00000270: abb3 6ebd 8700 77bd 3e3d 78bd 9d7f 73bd
00000280: 3cf3 73bd 37aa 77bd 053a 59bd d88a aabd
00000290: 4605 d5bd 1095 3fbc 74ee 39bd 719e bcbd
000002a0: 19e0 1c3c 5ef1 e03c f89a 89bd 27c1 51bd
000002b0: bb90 b1bd feb9 d8bd 8d1c fabb ee27 943c
000002c0: 0c17 c2bd 7ee6 45ba 6759 e03c d602 09bd
000002d0: 7648 623c ce06 93bd 3aee b2bd 679e 5a3d
000002e0: f8c2 203d 2dbc fbbc 82e9 eb3c 6610 073d
000002f0: ef04 d33b dcfd e33d 3572 dd3d 9ba1 49bd
00000300: 05bd ce3d 8be4 c83d 99fb 713d 8582 5f3d
00000310: ad54 833d 276b e43c 0209 bf3d 4597 bf3d
00000320: bccd 1a3d 35b1 b63d abc5 ae3d 7c69 733d
00000330: 2a14 553d 24fb 873d a054 c93c b4cb 4c3c
00000340: 9b41 a43c 0531 d3bc cd7b 173d d9b1 8c3d
00000350: baec d2bb d798 153d 000c a33c 6e02 a7bc
00000360: e785 703d e242 743d b07d 763d 97c1 713d
00000370: 5f45 793d ae1d 723d 4f0e 783d 69c1 6f3d
00000380: 13dd 743d 4447 733d 8511 7a3d c3d9 703d
00000390: a934 713d ff77 763d 63d9 7a3d 3ea4 773d
000003a0: f0a8 6f3d 1ba6 713d 4d26 7b3d a6cc 7a3d
000003b0: f0a7 733d 21fb 793d 1df5 7b3d d8d4 783d
000003c0: e1e9 713d 323c 7c3d 3305 793d 4ed9 713d
000003d0: bf57 6d3d 150c 6d3d a34a 6e3d 46d2 723d
000003e0: 6d29 723d 3b65 763d fe8b 7b3d 87aa 6e3d
000003f0: 2f63 753d c75e 6e3d c1d7 703d adc3 703d

blocks.2.bias f4 [16]
0.37096226 -0.42335257 -0.008678798 -0.041757233 0.45308515 -0.44786656 -0.6147521 -0.19211358
0.12867543 0.03073267 0.9977109 -0.15595438 0.1441293 0.4088885 1.2936152 0.64322025
00000000: c4ee bd3e abc1 d8be 8431 0ebc a209 2bbd
00000010: c7fa e73e c44e e5be 6560 1dbf 6cb9 44be
00000020: 7ec3 033e 15c3 fb3c fb69 7f3f 81b2 1fbe
00000030: a296 133e d559 d13e 2f95 a53f 15aa 243f

blocks.2.running_mean f4 [16]
126.89262 -112.3536 187.27791 -150.51036 154.34772 -179.9961 -89.695625 148.72183
179.97304 180.06592 156.84947 -180.01357 180.42445 119.51864 136.16026 95.4951
00000000: 05c9 fd42 0bb5 e0c2 2547 3b43 a782 16c3
00000010: 0459 1a43 00ff 33c3 2964 b3c2 cab8 1443
00000020: 19f9 3343 e010 3443 77d9 1c43 7903 34c3
00000030: a96c 3443 8b09 ef42 0729 0843 7efd be42

blocks.2.running_var f4 [16]
7980.9062 5249.351 14747.875 9879.219 10003.739 13803.758 3283.7742 9104.838
13827.272 13860.081 10335.831 13818.689 13902.543 5880.9634 7630.8677 3797.7441
00000000: 4067 f945 cf0a a445 806f 6646 e05c 1a46
00000010: f54e 1c46 08af 5746 633c 4d45 5a43 0e46
00000020: 170d 5846 5390 5846 537f 2146 c2ea 5746
00000030: 2c3a 5946 b5c7 b745 f176 ee45 e85b 6d45

blocks.2.weight f4 [16]
0.83584094 1.0877709 0.70830494 1.3134838 0.8870261 0.88753575 1.0301178 0.57578135
0.81981117 0.9089429 1.132761 1.1155547 0.41683397 0.4943197 0.77053744 0.46654
00000000: acf9 553f 143c 8b3f 7953 353f 3d20 a83f
00000010: 2414 633f 8b35 633f e6da 833f 6866 133f
00000020: 25df 513f 7bb0 683f 50fe 903f 7fca 8e3f
00000030: 436b d53e 7917 fd3e f141 453f 55de ee3e

blocks.3.blocks.10.bias f4 [16]
0.31699812 0.014348639 0.06600411 0.84186107 0.048926506 0.009432903 0.0029560467 0.16962795
-0.32919446 0.028681727 -0.036259107 -0.008723623 -0.30137324 0.05594923 -0.04826258 -0.0417595
00000000: 944d a23e 8e16 6b3c 2a2d 873d 3584 573f
00000010: 2967 483d 768c 1a3c 3cba 413b f3b2 2d3e
00000020: 2d8c a8be f1f5 ea3c 6e84 14bd 87ed 0ebc
00000030: 984d 9abe 052b 653d fcae 45bd 020c 2bbd

blocks.3.blocks.10.running_mean f4 [16]
3.674273 -5.934687 3.758404 -3.4959707 3.4624112 -4.559355 -1.5757687 3.1230686
-1.8389156 5.8073564 0.79321617 3.2744505 0.5724168 6.070055 -2.8202121 -3.4809852
00000000: 4a27 6b40 f5e8 bdc0 b189 7040 fcbd 5fc0
00000010: 2598 5d40 3ce6 91c0 cab2 c9bf 5be0 4740
00000020: 9661 ebbf ddd5 b940 3710 4b3f 9990 5140
00000030: e889 123f e43d c240 5b7e 34c0 76c8 5ec0

blocks.3.blocks.10.running_var f4 [16]
5.8824987 19.903698 7.5704584 19.394623 8.203291 4.882088 6.8568687 6.0204697
5.1398506 9.228551 9.173636 6.2389107 7.91159 12.234439 4.6167965 8.326455
00000000: 6e3d bc40 c63a 9f41 3241 f240 3028 9b41
00000010: ae40 0341 113a 9c40 786b db40 b0a7 c040
00000020: a879 a440 25a8 1341 37c7 1241 28a5 c740
00000030: bf2b fd40 43c0 4341 ccbc 9340 2939 0541

blocks.3.blocks.10.weight f4 [16]
1.0702676 1.1434742 0.76181054 0.9186585 0.9925866 0.86081374 0.93494475 0.9602238
0.9235426 0.96913475 1.0304159 0.9477727 1.0088664 0.9573905 0.91915363 1.0252079
00000000: 87fe 883f 5d5d 923f 0406 433f 342d 6b3f
00000010: 281a 7e3f 4a5e 5c3f 8a58 6f3f 3ad1 753f
00000020: 4a6d 6c3f 3719 783f abe4 833f 3ba1 723f
00000030: 8922 813f 8b17 753f a74d 6b3f 033a 833f

blocks.3.blocks.12.bias f4 [16]
-2.9455445e-05 0.00044159882 -0.00010393724 0.00020762799 0.0001744693 0.00019878273 2.6459096e-05 -0.0010635563
5.8866386e-05 0.00020742689 0.0003606349 -0.00016208501 -0.00016107885 0.0014755955 0.00036359834 1.8666897e-05
00000000: 1617 f7b7 6486 e739 e1f8 d9b8 b7b6 5939
00000010: bff1 3639 5570 5039 7af4 dd37 0767 8bba
00000020: 4de7 7638 bb80 5939 9913 bd39 5df5 29b9
00000030: 46e7 28b9 c568 c13a 58a1 be39 db96 9c37

blocks.3.blocks.12.weight f4 [16, 16, 2, 2]
0.11866248 0.18955167 0.09201771 0.1156093 -0.23768653 0.15636334 -0.034960005 -0.08545761
0.1268322 0.10711995 -0.19007407 -0.04689453 -0.07628658 -0.17819925 0.021216504 -0.19386417
-0.18051419 -0.120853595 0.10124789 -0.10906231 -0.020118594 0.037014913 -0.13404115 -0.0026586344
0.10559935 0.09270896 0.007219069 -0.020765232 0.033023186 0.048750058 0.101817675 0.007811222
-0.047968213 -0.14041974 -0.041183006 0.05935018 -0.0038032574 -0.013980634 -0.0067094965 -0.046857238
0.031473547 0.10950798 0.18973649 0.035599515 0.1154076 0.081440665 0.011519167 0.15508445
-0.057901926 0.16300271 -0.039884143 0.032395124 0.06873334 0.12339724 -0.050390504 -0.016793631
0.07780472 -0.12016178 -0.20064059 0.14499182 -0.103029214 0.24536222 0.17309992 -0.00088692707
-0.12139713 -0.05889476 -0.10539421 -0.2210885 0.071856484 -0.075599015 -0.07378564 0.0041266894
-0.049056374 -0.0014413071 0.00024580563 -0.17071357 0.17512688 0.09238413 0.14355627 0.15646951
-0.07528198 -0.030347504 0.14971311 0.039370578 0.12409879 0.076360054 0.120540135 -0.01885879
0.076166406 0.08954247 -0.0020150046 -0.08846644 0.35978875 0.13475735 0.24201533 0.49533862
0.09642952 -0.016393492 0.09329237 -0.002868517 0.11448517 0.061144948 0.10581585 -0.023115177
-0.25364816 -0.1875132 -0.22739862 -0.21149163 -0.01776679 0.006841977 0.02746316 0.007762014
-0.024062943 -0.22194743 0.030731326 -0.06971876 0.15002868 0.1623758 0.14574338 0.10804248
-0.15195683 -0.16740754 -0.2733616 -0.08127211 -0.13681123 -0.050550606 -0.050601825 0.009769493
0.014559911 -0.037656013 0.102450706 -0.13156673 -0.18649253 0.005668454 0.094096124 0.07860521
0.02421537 0.13899127 0.090267226 -0.027156593 -0.017457958 -0.069467194 0.13304755 -0.00043889016
-0.09757108 -0.13535368 0.083009765 0.0016707034 -0.015334936 0.058985177 0.064676605 -0.019838974
0.03326641 -0.01547358 -0.06491016 0.05969321 -0.079399206 0.06459251 0.098490685 0.10655538
-0.016603887 -0.06735094 0.0032270737 0.011513513 0.004488832 0.066743135 -0.07669229 -0.24564943
0.048353717 0.09825874 0.06733139 0.1023471 0.07789574 -0.13981283 0.045398753 -0.07032197
-0.064851485 -0.12134921 -0.1140039 0.11673193 -0.1674511 -0.14914902 0.03380249 -0.13150363
0.020425728 0.041292727 -0.08758997 0.030047942 -0.06550471 0.1407628 -3.466679e-05 -0.0455174
0.05069525 0.24132897 0.20713122 0.06055854 -0.1898721 0.14561261 0.044148885 -0.09945685
-0.049893636 0.07091999 0.027066102 -0.1498094 0.07537576 0.009016632 0.13832875 0.05038066
0.032914627 -0.13862604 -0.02364069 -0.13102973 0.11940038 0.14083108 -0.100720145 -0.027770363
-0.060423598 0.15058002 -0.32820255 0.007902291 -0.13964517 -0.23268974 -0.16676034 -0.06864031
-0.18933997 -0.149474 0.08239341 0.079467766 -0.015619579 -0.08995929 -0.18999726 -0.16391957
0.10247832 0.18123822 0.19604781 0.08888208 -0.06358076 -0.08316874 -0.084755644 -0.1313111
-0.04101602 0.12344361 0.059778657 0.31162214 -0.20779034 -0.10867256 -0.14124651 -0.061998155
0.11165934 0.068685316 0.18326713 0.15003285 -0.04311924 0.33247584 -0.05062657 0.104117095
00000000: 5005 f33d d519 423e c873 bc3d 92c4 ec3d
00000010: 1964 73be b61d 203e 3932 0fbd 6604 afbd
00000020: 4de0 013e b461 db3d c7a2 42be 7b14 40bd
00000030: 233c 9cbd dd79 36be 3cce ad3c 5484 46be
00000040: b6d8 38be 1782 f7bd 0e5b cf3d 0f5c dfbd
00000050: c0cf a4bc f39c 173d 1542 09be 7c3c 2ebb
00000060: 7944 d83d 32de bd3d f18d ec3b d91b aabc
00000070: 5243 073d 24ae 473d c985 d03d 48f5 ff3b
00000080: 517a 44bd 31ca 0fbe 83af 28bd 2d19 733d
00000090: 1240 79bb 070f 65bc 56db dbbb 60ed 3fbd
000000a0: 68ea 003d b845 e03d 484a 423e ccd0 113d
000000b0: d25a ec3d 5dca a63d e3ba 3c3c 75ce 1e3e
000000c0: 922a 6dbd 2fea 263e 8e5d 23bd c0b0 043d
000000d0: 11c4 8c3d b1b7 fc3d 4666 4ebd cc92 89bc
000000e0: 1558 9f3d 6117 f6bd ba74 4dbe bc78 143e
000000f0: fb00 d3bd 3c40 7b3e 1b41 313e ab80 68ba
00000100: 0f9f f8bd a23b 71bd ebd8 d7bd 0665 62be
00000110: 7e29 933d a8d3 9abd ed1c 97bd 2e39 873b
00000120: 56ef 48bd 3eea bcba 79df 8039 8acf 2ebe
00000130: 7654 333e e433 bd3d 6a00 133e 8b39 203e
00000140: 702d 9abd 549b f8bc 654e 193e 0b43 213d
00000150: 8227 fe3d a962 9c3d bfdd f63d c07d 9abc
00000160: 22fd 9b3d 0b62 b73d 2b0e 04bb e52d b5bd
00000170: 3b36 b83e d5fd 093e ded2 773e 069d fd3e
00000180: d77c c53d a54b 86bc 1210 bf3d bbfd 3bbb
00000190: 3377 ea3d 2073 7a3d fbb5 d83d 0a5c bdbc
000001a0: 2cde 81be 7603 40be 2fdb 68be 4391 58be
000001b0: a98b 91bc aa32 e03b 6cfa e03c 7e58 fe3b
000001c0: a61f c5bc 3046 63be 43c0 fb3c b6c8 8ebd
000001d0: 1ea1 193e d745 263e c13d 153e 6045 dd3d
000001e0: 929a 1bbe e26c 2bbe 0df6 8bbe fe71 a6bd
000001f0: 3e18 0cbe 270e 4fbd dc43 4fbd 3910 203c
00000200: b18c 6e3c 313d 1abd add1 d13d 6eb9 06be
00000210: e6f7 3ebe 70be b93b 78b5 c03d c5fb a03d
00000220: 505f c63c ba53 0e3e 06de b83d 8177 debc
00000230: fe03 8fbc d144 8ebd 9e3d 083e d71a e6b9
00000240: 59d3 c7bd 289a 0abe 0601 aa3d 81fb da3a
00000250: 623f 7bbc 719a 713d 2b75 843d 5885 a2bc
00000260: 5c42 083d e684 7dbc 9eef 84bd de80 743d
00000270: 0d9c a2bd 1449 843d 7cb5 c93d b539 da3d
00000280: e004 88bc 4aef 89bd 507d 533b 2ca3 3c3c
00000290: 0d17 933b a0b0 883d d910 9dbd 868b 7bbe
000002a0: 8c0e 463d e13b c93d 0ae5 893d 5b9b d13d
000002b0: cd87 9f3d 182b 0fbe 0bf4 393d f704 90bd
000002c0: dbd0 84bd ef85 f8bd e07a e9bd 2611 ef3d
000002d0: 4d78 2bbe 85ba 18be 7b74 0a3d e3a8 06be
000002e0: db53 a73c 9022 293d 5f62 b3bd 1a27 f63c
000002f0: 5527 86bd 2024 103e 2f67 11b8 7470 3abd
00000300: d3a5 4f3d f11e 773e 351a 543e 3b0c 783d
00000310: d56d 42be 791b 153e 76d5 343d 08b0 cbbd
00000320: 455d 4cbd 803e 913d bbb9 dd3c a367 19be
00000330: 9b5e 9a3d 7fba 133c 0da6 0d3e f35b 4e3d
00000340: 7dd1 063d fcf3 0dbe 1faa c1bc a82c 06be
00000350: 3088 f43d 0636 103e 5d46 cebd ac7e e3bc
00000360: bc7e 77bd a631 1a3e 2a0a a8be 9c78 013c
00000370: 25ff 0ebe 3846 6ebe 39c3 2abe 4a93 8cbd
00000380: 56e2 41be b60f 19be e0bd a83d ffbf a23d
00000390: 43e9 7fbc 943c b8bd a48e 42be 88da 27be
000003a0: 27e0 d13d 8396 393e c2c0 483e cf07 b63d
000003b0: a136 82bd 5f54 aabd 5e94 adbd 6b76 06be
000003c0: 6a00 28bd 01d0 fc3d 77da 743d f08c 9f3e
000003d0: fec6 54be b88f debd eda2 10be c7f1 7dbd
000003e0: a7ad e43d e3aa 8c3d 61aa 3b3e 36a2 193e
000003f0: cd9d 30bd 463a aa3e ce5d 4fbd 583b d53d

blocks.3.blocks.13.bias f4 [16]
0.554517 -0.36922014 0.016868616 0.072291374 -0.13199931 -0.34894887 -0.19310752 -0.27551755
-0.08772126 -0.09155713 0.7011987 0.05071236 0.13807815 0.6903216 0.8313066 0.6663108
00000000: d3f4 0d3f 6c0a bdbe 0d30 8a3c 800d 943d
00000010: d42a 07be 6da9 b2be fabd 45be a310 8dbe
00000020: 34a7 b3bd 4e82 bbbd c281 333f c3b7 4f3d
00000030: 5c64 0d3e ebb8 303f 82d0 543f 5893 2a3f

blocks.3.blocks.13.running_mean f4 [16]
0.24252339 -0.094744615 -0.20742586 0.07313466 -0.27268377 0.053814083 0.005368646 -0.08966903
-0.107671365 -0.14633606 -0.12929684 -0.054415934 0.023892863 0.049773585 -0.17180364 0.17389591
00000000: 0d58 783e 7709 c2bd 7267 54be a0c7 953d
00000010: 359d 8bbe 286c 5c3d 77eb af3b 65a4 b7bd
00000020: ce82 dcbd 1fd9 15be 6466 04be 3ee3 5ebd
00000030: f7ba c33c 63df 4b3d 4bed 2fbe c511 323e

blocks.3.blocks.13.running_var f4 [16]
0.16175337 0.2597055 0.20748875 0.15473819 0.16298184 0.1551063 0.23339589 0.2996056
0.1358835 0.19740382 0.44742575 0.14248587 0.193511 0.2322926 0.2578897 0.28740135
00000000: ada2 253e 1ff8 843e ee77 543e b073 1e3e
00000010: b6e4 263e 30d4 1e3e 55ff 6e3e e865 993e
00000020: 0b25 0b3e 3a24 4a3e fd14 e53e d1e7 113e
00000030: bf27 463e 1dde 6d3e 1e0a 843e 4526 933e

blocks.3.blocks.13.weight f4 [16]
0.911724 0.6962791 0.93644816 0.6625402 0.6108239 0.711 0.49639478 1.0135267
0.72134715 0.8976187 1.3590095 1.0705864 0.73081595 1.4716175 1.0070775 0.80578196
00000000: be66 693f 593f 323f 11bb 6f3f 3c9c 293f
00000010: f55e 1c3f 1904 363f 7527 fe3e 3ebb 813f
00000020: 35aa 383f 57ca 653f 06f4 ad3f fa08 893f
00000030: c116 3b3f f65d bc3f eae7 803f ba47 4e3f

blocks.3.blocks.2.weight f4 [8, 16, 3, 3]
-0.09647592 -0.06840404 0.04976229 0.012260992 -0.06642934 -0.051071566 0.0011757233 -0.006743646
-0.061737202 -0.0812103 -0.026219655 -0.04304823 -0.0950062 -0.020111382 -0.013880721 -0.011538281
0.011619333 -0.033359777 0.052292313 -0.031985663 -0.061745826 -0.036563694 -0.075378306 -0.049899675
0.06141097 -0.06254613 0.037853334 0.04811445 0.14482772 0.12136244 0.014778512 0.040248487
0.10216874 0.086167514 0.041760843 0.0963979 -0.09132199 -0.13168482 -0.15047953 -0.08939738
-0.11180908 -0.14362012 -0.03255604 -0.12806718 -0.058350794 0.101157136 0.093472615 0.10511067
0.08594246 -0.012530269 0.12647063 0.055411465 0.083438635 0.11263826 -0.02420097 -0.030026356
-0.05386193 0.0018050434 -0.058829147 -0.022576386 -0.14368032 -0.11207896 -0.02022248 -0.063702814
0.0019377694 -0.07777367 0.04288914 0.037731398 -0.06790772 -0.048314616 0.07001273 -0.060076296
-0.044834726 -0.07114104 -0.12621205 -0.050863214 -0.01374378 -0.13435125 -0.029601302 -0.107775
-0.057312544 -0.004085822 -0.10332076 0.027033819 -0.005261793 -0.075711966 0.037739787 -0.044227302
-0.11941373 -0.114605434 0.048519682 0.03188185 -0.060596164 -0.068556875 -0.046012882 -0.047735292
0.023128388 -0.1529844 -0.026432727 0.16105318 0.055326052 0.04704323 0.0476166 0.02323669
0.050116386 0.015266632 0.12647723 0.114400014 -0.09840691 -0.01216317 -0.102324955 -0.0586323
-0.008584658 -0.08501979 -0.069464765 -0.00053184025 -0.05199347 -0.043503817 -0.08297 0.025455205
-0.051477823 -0.016649257 -0.0078033656 -0.104739726 -0.067883365 0.026243666 -0.011253322 -0.1217186
-0.032087542 -0.13956086 -0.13494486 0.014324225 -0.08850681 -0.070532784 -0.072319195 0.0036863526
-0.077761546 0.007439572 -0.0010112633 -0.020844871 0.039678622 0.0035661946 -0.07752525 -0.06783883
0.027667155 -0.07366256 0.032356843 0.078370325 -0.0012824707 0.044410244 0.0015520626 0.055678762
0.15071027 -0.0017183743 -0.00789707 -0.06861152 -0.0032731588 -0.0061813225 -0.05749517 -0.04328576
-0.10962594 0.03995446 0.025921565 -0.06839104 0.017262481 0.05045855 0.062459484 0.0637215
-0.031918738 0.03851104 -0.0107461475 -0.027551051 0.059662066 0.07646107 0.05370696 0.034247406
-0.057648506 -0.0073393243 0.0078219725 0.0013316018 0.07480671 0.13179246 0.036793917 0.14149378
0.04834485 0.05750787 0.17373456 0.19739981 0.1735456 0.03030292 0.04961553 0.000538634
-0.05387757 0.008266596 -0.029658066 -0.02561617 0.009713822 0.037181754 0.026459508 0.0076256637
0.02133781 0.061477497 0.035515513 -0.0015867793 0.04970782 0.10033897 0.043099847 -0.004993137
0.008494037 -0.019333057 0.023766065 -0.0044718743 -0.109696046 0.0055736965 -0.020459043 -0.018879231
-0.0045765005 0.11788698 0.06517357 0.08294182 0.17939875 0.1687329 0.086871825 0.24976978
0.15590774 0.0034915118 0.08730744 0.053272817 0.13354762 0.113339655 0.07537791 0.14769958
0.17805648 0.09717996 0.08221138 0.07229985 0.025852015 0.051465046 0.033683643 0.045744445
0.11879126 0.12066675 0.025150394 -0.059089817 -0.036007427 0.01584518 -0.083671756 0.019695217
0.051178526 -0.048866585 -0.06337054 -0.080287896 -0.0893409 -0.007325581 -0.022882763 -0.01536923
00000000: 2b95 c5bd 6b17 8cbd 8bd3 4b3d 54e2 483c
00000010: 1b0c 88bd 6b30 51bd ba1a 9a3a cef9 dcbb
00000020: 26e0 7cbd 9651 a6bd 9aca d6bc 5753 30bd
00000030: 9c92 c2bd a0c0 a4bc f76b 63bc 0f0b 3dbc
00000040: 045f 3e3c 43a4 08bd 7730 563d 6603 03bd
00000050: 31e9 7cbd d0c3 15bd f15f 9abd 9a63 4cbd
00000060: 128a 7b3d 2f18 80bd 190c 1b3d a813 453d
00000070: b84d 143e df8c f83d 9221 723c 99db 243d
00000080: d83d d13d 9878 b03d 6b0d 2b3d 436c c53d
00000090: 0607 bbbd 63d8 06be 4e17 1abe f915 b7bd
000000a0: 29fc e4bd 2711 13be 7b59 05bd 0b24 03be
000000b0: 3e01 6fbd 792b cf3d 926e bf3d 4344 d73d
000000c0: 9a02 b03d c24b 4dbc 8481 013e 22f7 623d
000000d0: e0e1 aa3d e3ae e63d 1d41 c6bc d5f9 f5bc
000000e0: 549e 5cbd 3597 ec3a d5f6 70bd 1df2 b8bc
000000f0: ef20 13be a789 e5bd 9da9 a5bc 9f76 82bd
00000100: c0fc fd3a cd47 9fbd 86ac 2f3d 3d8c 1a3d
00000110: 3413 8bbd 8ce5 45bd d662 8f3d 9012 76bd
00000120: 9ea4 37bd 65b2 91bd bb3d 01be f255 50bd
00000130: 972d 61bc 6093 09be 6e7e f2bc 24b9 dcbd
00000140: 8fc0 6abd 5ce2 85bb d699 d3bd 0776 dd3c
00000150: 1e6b acbb e00e 9bbd 0995 1a3d b027 35bd
00000160: 308f f4bd 41b6 eabd 93bc 463d 8b96 023d
00000170: af33 78bd 8c67 8cbd 0178 3cbd 1586 43bd
00000180: bf77 bd3c f1a7 1cbe 7289 d8bc 20eb 243e
00000190: 929d 623d 67b0 403d a009 433d df5a be3c
000001a0: d746 4d3d e520 7a3c 3f83 013e 8e4a ea3d
000001b0: 9089 c9bd 0848 47bc bf8f d1bd 6c28 70bd
000001c0: aaa6 0cbc db1e aebd 8b43 8ebd 326b 0bba
000001d0: 1bf7 54bd 0f31 32bd 2dec a9bd 6f87 d03c
000001e0: 69da 52bd 0664 88bc 60b3 ffbb c881 d6bd
000001f0: 6f06 8bbd f5fc d63c da5f 38bc 9a47 f9bd
00000200: 3a6e 03bd 0be9 0ebe fc2e 0abe 27b0 6a3c
00000210: 0f43 b5bd 7e73 90bd 161c 94bd bc96 713b
00000220: 7241 9fbd a7c7 f33b 5e8c 84ba ddc2 aabc
00000230: 0d86 223d d1b6 693b 8fc5 9ebd 16ef 8abd
00000240: 3ba6 e23c 65dc 96bd 9c88 043d 9f80 a03d
00000250: 9318 a8ba 84e7 353d 946e cb3a 6a0f 643d
00000260: cb53 1a3e 133b e1ba b662 01bc 3284 8cbd
00000270: 7e82 56bb b18c cabb 0e80 6bbd 694c 31bd
00000280: 9183 e0bd 4aa7 233d 7659 d43c 9a10 8cbd
00000290: 0c6a 8d3c a0ad 4e3d 84d5 7f3d 6b80 823d
000002a0: 39bd 02bd c1bd 1d3d 9c10 30bc beb2 e1bc
000002b0: 3660 743d 9f97 9c3d d4fb 5b3d 0247 0c3d
000002c0: d720 6cbd b77e f0bb bb27 003c 2489 ae3a
000002d0: 4334 993d 9af4 063e 38b5 163d bfe3 103e
000002e0: 4005 463d 5f8d 6b3d 79e7 313e 2d23 4a3e
000002f0: f0b5 313e d43d f83c a739 4b3d 1e33 0d3a
00000300: baae 5cbd 9e70 073c 79f5 f2bc 01d9 d1bc
00000310: b926 1f3c e54b 183d 9cc1 d83c b4e0 f93b
00000320: a2cc ae3c d4cf 7b3d b778 113d 7afb cfba
00000330: 6d9a 4b3d 857e cd3d 7789 303d 789d a3bb
00000340: 932a 0b3c 5c60 9ebc 0db1 c23c cd88 92bb
00000350: 52a8 e0bd 8ea3 b63b b999 a7bc 9ea8 9abc
00000360: 78f6 95bb bb6e f13d b879 853d 67dd a93d
00000370: 4eb4 373e 51c8 2c3e dbe9 b13d a6c3 7f3e
00000380: 47a6 1f3e d9d1 643b 3ece b23d 9934 5a3d
00000390: b5c0 083e 9f1e e83d bc5f 9a3d 8f3e 173e
000003a0: 7054 363e 4906 c73d 715e a83d f211 943d
000003b0: 9bc7 d33c 03cd 523d dcf7 093d 875e 3b3d
000003c0: d548 f33d 2120 f73d 3308 ce3c 2a08 72bd
000003d0: 867c 13bd c0cd 813c 195c abbd dd57 a13c
000003e0: 93a0 513d 5428 48bd 6ac8 81bd fb6d a4bd
000003f0: 5df8 b6bd 6d0b f0bb a274 bbbc 39cf 7bbc

blocks.3.blocks.3.bias f4 [8]
-0.01731575 0.9136309 0.71092224 0.90076834 1.1933578 -0.4834266 1.1427807 0.52746
00000000: c2d9 8dbc b7e3 693f 00ff 353f c198 663f
00000010: f3bf 983f b183 f7be a346 923f 9e07 073f

blocks.3.blocks.3.running_mean f4 [8]
-2.2345843 2.88268 3.1648116 2.0161486 0.3366691 -3.708285 -0.24056876 2.3781424
00000000: 6e03 0fc0 d47d 3840 468c 4a40 9408 0140
00000010: e45f ac3e 8b54 6dc0 a857 76be 7c33 1840

blocks.3.blocks.3.running_var f4 [8]
10.35001 8.980158 8.117503 14.780424 4.5037827 107.5852 2.3546777 6.5823293
00000000: a499 2541 baae 0f41 4be1 0141 9e7c 6c41
00000010: fd1e 9040 9f2b d742 0ab3 1640 71a2 d240

blocks.3.blocks.3.weight f4 [8]
0.8457485 0.91271526 0.60653216 0.60843825 0.49831128 1.1821328 0.447739 0.7540123
00000000: f982 583f b5a7 693f b145 1b3f 9cc2 1b3f
00000010: a822 ff3e 2150 973f 0c3e e53e f306 413f

blocks.3.blocks.4.blocks.2.weight f4 [8, 1, 3, 3]
0.23343651 0.041187357 0.0030973095 -0.011035798 -0.08376248 -0.05558241 -0.42707956 -0.22615008
-0.38175493 -0.23804395 -0.12635133 0.29059082 0.09455097 0.14677207 0.32009682 -0.03677983
0.2989714 -0.040406387 0.31879374 -0.0845499 0.28176486 0.23762535 0.25958252 -0.23424406
-0.37543547 0.21091579 0.013404095 0.37928814 -0.09988212 -0.40637165 0.23260947 -0.07536796
-0.098988414 0.07628747 0.2486295 -0.2531832 0.029696563 -0.40010014 -0.27410877 -0.043993134
-0.18564354 0.26476443 -0.20051754 0.34399968 0.17251158 -0.30708602 -0.10864054 -0.08019726
-0.057730567 -0.010049026 -0.46868223 -0.024961561 -0.27859536 0.24385262 -0.13077985 -0.18974593
-0.018206794 -0.15938334 0.059352923 -0.16988781 -0.40493545 -0.10435131 -0.55007964 0.024977772
-0.125169 -0.21316153 -0.16875479 -0.1195168 0.11226428 -0.13935526 -0.0023253153 -0.08567387
00000000: fb09 6f3e 13b4 283d 3bfc 4a3b 7ecf 34bc
00000010: aa8b abbd 62aa 63bd 2caa dabe e393 67be
00000020: 6275 c3be cbc1 73be 3e62 01be 52c8 943e
00000030: f0a3 c13d 6b4b 163e bbe3 a33e 72a6 16bd
00000040: c812 993e 2b81 25bd ef38 a33e 7f28 adbd
00000050: 7c43 903e 0f54 733e 00e8 843e addd 6fbe
00000060: 1439 c0be 4ffa 573e d99c 5b3c 0e32 c23e
00000070: ff8e ccbd f20f d0be 2d31 6e3e 845a 9abd
00000080: 70ba cabd 9b3c 9c3d bb98 7e3e 3aa1 81be
00000090: 3546 f33c edd9 ccbe fc57 8cbe 2532 34bd
000000a0: 5719 3ebe 348f 873e 7854 4dbe ba20 b03e
000000b0: e0a6 303e 613a 9dbe ee7e debd 763e a4bd
000000c0: e376 6cbd aca4 24bc 1ef7 efbe 307c ccbc
000000d0: 0da4 8ebe 80b4 793e 27eb 05be c24c 42be
000000e0: 6a26 95bc 6335 23be 0d1c 733d 12f7 2dbe
000000f0: b353 cfbe 24b6 d5bd 05d2 0cbf 2f9e cc3c
00000100: 4d2c 00be 0447 5abe 0ece 2cbe 39c5 f4bd
00000110: d1ea e53d 25b3 0ebe 5164 18bb c875 afbd

blocks.3.blocks.4.blocks.3.bias f4 [8]
0.6029834 0.48248863 0.8839347 1.1077863 -0.21691911 0.462324 -0.1987214 -0.095970176
00000000: 1f5d 1a3f c008 f73e 8b49 623f f1cb 8d3f
00000010: 0b20 5ebe bbb5 ec3e 9f7d 4bbe 038c c4bd

blocks.3.blocks.4.blocks.3.running_mean f4 [8]
-0.319578 0.6491635 0.44327724 -0.011621855 -0.31918746 -0.3140353 -1.9066216 -0.42493227
00000000: ba9f a3be 942f 263f 3cf5 e23e 9869 3ebc
00000010: 8a6c a3be 3cc9 a0be 2d0c f4bf b990 d9be

blocks.3.blocks.4.blocks.3.running_var f4 [8]
0.1401363 0.4193064 0.14558247 0.017473884 0.027725685 0.25449038 0.54633707 0.23388354
00000000: e47f 0f3e 54af d63e 9213 153e 6425 8f3c
00000010: fa20 e33c 904c 823e bfdc 0b3f 2b7f 6f3e

blocks.3.blocks.4.blocks.3.weight f4 [8]
0.47073057 1.0198543 0.85074717 0.6883621 0.7460006 0.54266715 1.2276119 0.83019185
00000000: 9903 f13e 968a 823f 91ca 593f 8038 303f
00000010: e5f9 3e3f 3cec 0a3f 6322 9d3f 7487 543f

blocks.3.blocks.4.blocks.5.weight f4 [8, 8, 1, 1]
-0.018474802 0.40808022 -0.3018106 -0.09212192 -0.3520474 0.14593358 0.12820794 -0.03330839
0.3615876 -0.12164155 -0.29369694 0.27552506 0.017566394 0.14504093 -0.34147426 0.0840578
0.005979589 -0.23165557 -0.3229427 -0.0931712 0.13790573 0.103602745 -0.30898312 0.30509487
-0.005686502 0.04499726 -0.40539488 -0.19254327 -0.17075089 0.10151731 -0.16678627 0.32489386
0.30344227 0.4170672 0.35515308 0.17877871 -0.06510917 0.09380441 -0.16038412 -0.2367819
0.07006607 -0.23828487 -0.12621552 0.058425568 -0.09203266 0.3089614 0.38040012 -0.013394237
-0.28882965 -0.21230395 -0.19147854 0.5406564 -0.06437017 0.12192894 -0.13747595 -0.048504572
-0.081534296 0.058368616 0.15660952 -0.19692566 -0.43831873 0.12790243 -0.5255192 -0.11720465
00000000: 7858 97bc e4ef d03e eb86 9abe 6baa bcbd
00000010: 8f3f b4be 9d6f 153e f148 033e 616e 08bd
00000020: 0322 b93e 341f f9bd 725f 96be 9f11 8d3e
00000030: 66e7 8f3c 9c85 143e b7d5 aebe 7f26 ac3d
00000040: 6ef0 c33b 1e37 6dbe bf58 a5be 8bd0 bebd
00000050: 2937 0d3e ad2d d43d 0933 9ebe 6535 9c3e
00000060: d655 babb 0c4f 383d eb8f cfbe 102a 45be
00000070: 52d9 2ebe 4fe8 cf3d 05ca 2abe 7d58 a63e
00000080: c95c 9b3e d589 d53e a0d6 b53e c411 373e
00000090: f557 85bd 871c c03d bc3b 24be f476 72be
000000a0: cd7e 8f3d f300 74be a43e 01be a64f 6f3d
000000b0: 9f7b bcbd 3030 9e3e cec3 c23e 8073 5bbc
000000c0: 7be1 93be 3566 59be f312 44be 7568 0a3f
000000d0: 82d4 83bd e1b5 f93d 7fc6 0cbe bbac 46bd
000000e0: 74fb a6bd ee13 6f3d 3f5e 203e e1a6 49be
000000f0: 506b e0be dbf8 023e 6d88 06bf fe08 f0bd

blocks.3.blocks.4.blocks.6.bias f4 [8]
0.42853415 0.7333974 0.543166 0.38581523 0.4004122 -0.214263 0.44702196 0.39038262
00000000: d468 db3e efbf 3b3f ed0c 0b3f 9389 c53e
00000010: d402 cd3e c367 5bbe 10e0 e43e 3be0 c73e

blocks.3.blocks.4.blocks.6.running_mean f4 [8]
-0.052906863 0.15692267 -0.50115156 -0.5005358 0.8796172 0.17884676 0.108199425 -0.39157155
00000000: deb4 58bd 56b0 203e 784b 00bf 1d23 00bf
00000010: 982e 613f 9b23 373e a997 dd3d 117c c8be

blocks.3.blocks.4.blocks.6.running_var f4 [8]
0.048647672 0.17644936 0.21555921 0.11464667 0.83951586 0.15974401 0.23366517 0.51322013
00000000: c842 473d 24af 343e 8ebb 5c3e e0cb ea3d
00000010: 83ea 563f ef93 233e ec45 6f3e 6562 033f

blocks.3.blocks.4.blocks.6.weight f4 [8]
0.99096256 0.6487342 1.1861519 0.85854423 0.56733274 0.80177706 0.74607426 0.62039864
00000000: b9af 7d3f 7213 263f d3d3 973f 8ec9 5b3f
00000010: b83c 113f 4341 4d3f b9fe 3e3f 72d2 1e3f

blocks.3.blocks.5.blocks.2.weight f4 [8, 1, 3, 3]
0.27156174 0.2534421 -0.18026121 0.20768265 0.079073645 -0.12363421 0.08158369 -0.2646184
-0.28420836 0.04461376 0.42203698 -0.0090927435 -0.29866537 -0.06371096 0.24297625 -0.059401277
-0.41800666 0.021494105 0.036616396 0.18584676 -0.077443294 -0.077561505 -0.3838341 -0.23001641
-0.34872478 -0.5414753 0.0012299462 -0.08878411 0.1765584 -0.21795756 -0.026104677 -0.41186792
0.009395249 -0.32878047 -0.3146907 -0.1756537 -0.5258196 -0.46355587 -0.25123218 -0.017825644
0.23167978 0.24101779 0.4898224 0.5484836 -0.10618194 0.16051097 -0.15879615 0.22413951
0.18385929 -0.46129712 0.20649545 -0.2492419 0.45304352 -0.10788901 -0.32837924 -0.13200212
0.4002323 0.19429398 -0.14152552 -0.082656324 0.37858242 0.3253078 -0.4438754 -0.12848987
-0.25414363 -0.14152981 -0.15882519 -0.05039843 -0.02147615 0.3133436 0.13668023 0.53091955
00000000: 240a 8b3e 2ac3 813e 6596 38be c3aa 543e
00000010: 5df1 a13d ef33 fdbd 5a15 a73d 107c 87be
00000020: c283 91be ebbc 363d 3b15 d83e bbf9 14bc
00000030: abea 98be e47a 82bd c4ce 783e c14e 73bd
00000040: f804 d6be 6814 b03c 13fb 153d 9d4e 3e3e
00000050: 979a 9ebd 91d8 9ebd e785 c4be 6c89 6bbe
00000060: 0e8c b2be 209e 0abf 2536 a13a 72d4 b5bd
00000070: bacb 343e 4430 5fbe 7ad9 d5bc 5ae0 d2be
00000080: 88ee 193c ea55 a8be 241f a1be 90de 33be
00000090: 1d9c 06bf 3257 edbe 81a1 80be 1607 92bc
000000a0: 773d 6d3e 5ecd 763e 00ca fa3e 6c69 0c3f
000000b0: eb75 d9bd fd5c 243e 759b 22be d484 653e
000000c0: 9c45 3c3e 232f ecbe 8b73 533e 4539 7fbe
000000d0: 52f5 e73e eaf4 dcbd 5321 a8be 902b 07be
000000e0: 3feb cc3e 00f5 463e 11ec 10be b847 a9bd
000000f0: 8ed5 c13e be8e a63e a343 e3be d992 03be
00000100: 1d1f 82be 31ed 10be 12a3 22be 966e 4ebd
00000110: c0ee afbc 936e a03e e7f5 0b3e 58ea 073f

blocks.3.blocks.5.blocks.3.bias f4 [8]
-0.10194708 0.6499712 0.028784294 -0.11516146 0.9752169 -0.07025132 0.67587864 0.8127695
00000000: a1c9 d0bd 8364 263f 0acd eb3c c6d9 ebbd
00000010: d1a7 793f eddf 8fbd 6206 2d3f a911 503f

blocks.3.blocks.5.blocks.3.running_mean f4 [8]
0.027112555 -0.20080344 -1.8193568 -1.8065655 0.23599389 0.11618601 0.27877593 0.28373778
00000000: 261b de3c 6b9f 4dbe afe0 e8bf 8a3d e7bf
00000010: 62a8 713e eef2 ed3d b8bb 8e3e 1446 913e

blocks.3.blocks.5.blocks.3.running_var f4 [8]
0.105898075 0.116915345 0.93980545 0.7512521 0.2749185 0.04882577 0.17148285 0.19238214
00000000: 17e1 d83d 5071 ef3d 1797 703f 0f52 403f
00000010: 1ec2 8c3e 88fd 473d 3399 2f3e d3ff 443e

blocks.3.blocks.5.blocks.3.weight f4 [8]
0.750938 0.8975407 0.8317406 0.867247 0.92062795 0.6765124 0.79801875 1.0138726
00000000: 793d 403f 3ac5 653f f4ec 543f e603 5e3f
00000010: 46ae 6b3f eb2f 2d3f f54a 4c3f 94c6 813f

blocks.3.blocks.5.blocks.5.weight f4 [8, 8, 1, 1]
0.32473344 0.11882158 0.09034468 0.0916902 -0.41968378 0.40369064 0.18586034 -0.37034976
-0.08547379 0.49536002 0.056060106 -0.055289373 -0.13305312 -0.12074381 -0.28554946 0.32814753
0.020292176 0.1572663 -0.11936095 -0.12308449 -0.6699342 0.16497421 0.18690965 0.012679316
0.012126627 -0.095314614 0.18669195 -0.32577318 0.14916517 0.16021958 0.076498695 0.37355945
-0.015068945 0.16369851 -0.24910803 -0.055046186 -0.13397272 0.11326548 0.31575093 -0.4167002
0.21774302 -0.040796254 0.5186787 0.2386213 -0.027032623 -0.15519473 0.059202287 -0.14763798
0.23713808 0.19267866 -0.15502143 -0.4817756 0.23541561 -0.13005939 0.1398438 0.1879619
-0.096244976 0.31162164 -0.1949648 0.0078540025 -0.5538822 -0.041001655 0.24962255 -0.23281005
00000000: 7643 a63e bb58 f33d a206 b93d 12c8 bb3d
00000010: cbe0 d6be 8ab0 ce3e 2c52 3e3e 7c9e bdbe
00000020: e20c afbd d49f fd3e 489f 653d 1c77 62bd
00000030: 143f 08be 8848 f7bd 8a33 92be f402 a83e
00000040: c73b a63c 6b0a 213e 8473 f4bd b913 fcbd
00000050: cf80 2bbf 00ef 283e 3e65 3f3e e8bc 4f3c
00000060: c3ae 463c 4f34 c3bd 2d2c 3f3e becb a6be
00000070: c1be 183e 9a10 243e 59ab 9c3d 2f43 bf3e
00000080: bce3 76bc 95a0 273e 2d16 7fbe 1c78 61bd
00000090: 2530 09be bbf7 e73d 1baa a13e bb59 d5be
000000a0: 07f8 5e3e f919 27bd 21c8 043f 2459 743e
000000b0: 8573 ddbc 5eeb 1ebe 197e 723d 692e 17be
000000c0: 53d4 723e 8e4d 453e f0bd 1ebe 4bab f6be
000000d0: ca10 713e 4a2e 05be 3733 0f3e 1679 403e
000000e0: 161c c5bd df8c 9f3e daa4 47be 13ae 003c
000000f0: 39cb 0dbf 5af1 27bd 0e9d 7f3e c265 6ebe

blocks.3.blocks.5.blocks.6.bias f4 [8]
-0.15555221 0.46965873 0.7596928 0.17764921 0.2749327 -0.1179009 0.19406913 0.27134866
00000000: 1449 1fbe 1c77 f03e 3a7b 423f ade9 353e
00000010: fbc3 8c3e 0776 f1bd 0fba 463e 36ee 8a3e

blocks.3.blocks.5.blocks.6.running_mean f4 [8]
-0.31338766 0.2568762 -0.47851738 0.47967172 -0.2314726 0.113402575 0.4745839 -0.46259826
00000000: 5974 a0be 4785 833e 3b00 f5be 8897 f53e
00000010: 2707 6dbe 9c3f e83d a9fc f23e aed9 ecbe

blocks.3.blocks.5.blocks.6.running_var f4 [8]
0.6050764 0.19963956 0.35319838 0.24834095 0.38875484 0.11222038 0.2549644 0.5897306
00000000: 49e6 1a3f 506e 4c3e 6bd6 b43e 174d 7e3e
00000010: e00a c73e ccd3 e53d b28a 823e 96f8 163f

blocks.3.blocks.5.blocks.6.weight f4 [8]
1.0915296 1.0195613 1.08846 0.614597 0.817594 1.0616134 0.674592 1.3351923
00000000: 3eb7 8b3f fc80 823f a852 8b3f 3b56 1d3f
00000010: d74d 513f f3e2 873f 10b2 2c3f 95e7 aa3f

blocks.3.blocks.6.blocks.2.weight f4 [8, 1, 3, 3]
-0.024622584 -0.31738338 0.19646104 -0.157748 -0.040061645 0.18153912 -0.15301111 0.07097679
0.44980517 0.14896779 -0.031414315 0.4315454 -0.28747675 0.102973476 0.030675782 -0.18569273
-0.10171174 0.5022235 0.15043373 0.16899386 0.25998032 0.025358727 -0.13365984 0.19553812
-0.35918054 -0.2890297 -0.021755494 -0.25861245 -0.16718803 -0.22594927 -0.3026852 -0.26736444
-0.16441725 0.13687356 -0.11347994 -0.048401427 -0.013209075 0.036200203 -0.023844179 -0.21949527
-0.037609264 -0.2474371 -0.06947335 0.08502475 0.5779517 -0.048002895 -0.083584845 -0.1919413
-0.16282488 -0.4063558 0.1943011 -0.064286664 -0.10371678 0.17138523 0.067095764 -0.34170303
0.08279337 -0.12673184 0.14876112 -0.0837046 -0.09767803 -0.36397645 -0.24163543 0.41779813
0.18759194 0.3195189 0.029512322 0.12857096 0.22782105 -0.09886581 -0.1288957 -0.044217657
00000000: 4db5 c9bc 1380 a2be 152d 493e b188 21be
00000010: ae17 24bd 64e5 393e f2ae 1cbe 475c 913d
00000020: dd4c e63e 038b 183e 4cac 00bd 85f3 dc3e
00000030: 2730 93be c2e3 d23d c74b fb3c 3c26 3ebe
00000040: 3f4e d0bd b891 003f 4d0b 1a3e ba0c 2d3e
00000050: 241c 853e 1bbd cf3c 20de 08be 253b 483e
00000060: 83e6 b7be b3fb 93be 9438 b2bc da68 84be
00000070: 5733 2bbe 3f5f 67be 8ef9 9abe fee3 88be
00000080: ff5c 28be 9528 0c3e 2c68 e8bd 9340 46bd
00000090: e06a 58bc aa46 143d de54 c3bc 5ec3 60be
000000a0: 2c0c 1abd 2760 7dbe 0b48 8ebd 7521 ae3d
000000b0: a5f4 133f af9e 44bd 882e abbd 438c 44be
000000c0: 91bb 26be de0d d0be def6 463e baa8 83bd
000000d0: 7769 d4bd 9c7f 2f3e 8169 893d b3f3 aebe
000000e0: 928f a93d fec5 01be d654 183e 516d abbd
000000f0: 6b0b c8bd 1f5b babe 476f 77be a3e9 d53e
00000100: 1a18 403e fb97 a33e d3c3 f13c 1ba8 033e
00000110: ec49 693e 287a cabd 3cfd 03be 931d 35bd

blocks.3.blocks.6.blocks.3.bias f4 [8]
-0.04864081 0.55960286 0.035827197 0.11246447 0.26757616 0.017290408 0.034631267 0.53607005
00000000: 963b 47bd 2242 0f3f 8abf 123d c653 e63d
00000010: beff 883e 9da4 8d3c 84d9 0d3d e33b 093f

blocks.3.blocks.6.blocks.3.running_mean f4 [8]
0.1534502 1.3135809 0.024019934 -2.1645482 0.1539351 -0.43488067 -1.7591549 1.3947043
00000000: 0d22 1d3e 6b23 a83f 74c5 c43c f587 0ac0
00000010: 2aa1 1d3e aea8 debe fd2b e1bf ac85 b23f

blocks.3.blocks.6.blocks.3.running_var f4 [8]
0.15085134 1.0016013 0.24390161 1.5920707 0.05954092 0.9100277 0.82215756 1.2928171
00000000: c678 1a3e 7934 803f 58c1 793e f9c8 cb3f
00000010: 2ee1 733d 93f7 683f eb78 523f 087b a53f

blocks.3.blocks.6.blocks.3.weight f4 [8]
0.6573014 0.84499735 0.783027 1.1030421 0.85749537 0.8287634 1.105048 1.078454
00000000: e844 283f bf51 583f 7574 483f 7c30 8d3f
00000010: d184 5b3f d729 543f 3672 8d3f c80a 8a3f

blocks.3.blocks.6.blocks.5.weight f4 [8, 8, 1, 1]
0.2467799 -0.20489761 0.38525113 0.20646816 -0.12130556 0.005890827 0.3190533 -0.2086284
-0.04896254 0.19384499 -0.13945301 -0.49048582 0.22560027 0.011026134 -0.36906087 -0.21726258
0.22096795 0.4085103 0.22165798 -0.38900316 0.39369902 -0.18845257 0.0061836354 -0.10554953
-0.02709395 -0.023050623 0.2686937 -0.026421644 -0.2670707 -0.1752487 -0.13020463 0.45072266
0.10725537 0.18871683 0.11535229 -0.5259549 0.28835282 0.092250116 -0.17409898 -0.19595528
-0.032552823 0.27889797 0.052052677 0.06395258 -0.043237664 0.39487243 0.35530338 -0.053236526
0.051630028 0.32778466 -0.0355267 -0.29854017 0.15794465 0.07252847 0.12200217 0.0803233
-0.07360051 0.22283871 -0.05264393 -0.22043836 -0.18888569 -0.16000825 0.15903842 0.44811845
00000000: dfb3 7c3e aed0 51be a33f c53e 646c 533e
00000010: 0d6f f8bd d707 c13b f45a a33e afa2 55be
00000020: f28c 48bd 4d7f 463e c5cc 0ebe f520 fbbe
00000030: c203 673e f5a6 343c 8cf5 bcbe 157a 5ebe
00000040: 6c45 623e 4328 d13e 4ffa 623e 6c2b c7be
00000050: eb92 c93e b6f9 40be 18a0 ca3b 5a2a d8bd
00000060: 22f4 ddbc a9d4 bcbc 3892 893e 3472 d8bc
00000070: 7ebd 88be 6574 33be 5d54 05be 1fc5 e63e
00000080: b4a8 db3d fc3e 413e d23d ec3d fba4 06bf
00000090: fba2 933e a1ed bc3d 0147 32be 80a8 48be
000000a0: 1c56 05bd b7cb 8e3e 3035 553d 92f9 823d
000000b0: fa19 31bd b82c ca3e 53ea b53e 8b0e 5abd
000000c0: 027a 533d 64d3 a73e 7284 11bd 42da 98be
000000d0: 3ebc 213e ce89 943d 46dc f93d 8b80 a43d
000000e0: ddbb 96bd d52f 643e 29a1 57bd 98ba 61be
000000f0: 406b 41be 34d9 23be f8da 223e c86f e53e

blocks.3.blocks.6.blocks.6.bias f4 [8]
-0.2901192 0.37012458 0.71344435 -0.20596427 0.26168054 -0.142539 0.071840666 0.15929064
00000000: 818a 94be f880 bd3e 4aa4 363f 4ce8 52be
00000010: fefa 853e bef5 11be 3321 933d 161d 233e

blocks.3.blocks.6.blocks.6.running_mean f4 [8]
0.045517847 -0.38070276 0.23512721 0.13928455 -0.13921139 0.4484219 0.28382736 0.282873
00000000: ec70 3a3d 79eb c2be 30c5 703e 9ca0 0e3e
00000010: 6e8d 0ebe 8e97 e53e d251 913e bbd4 903e

blocks.3.blocks.6.blocks.6.running_var f4 [8]
0.3604786 0.49681327 0.29597026 0.24411912 0.37603837 0.07751509 0.16393377 0.24659629
00000000: a790 b83e 4f5e fe3e 6a89 973e 5dfa 793e
00000010: 1a88 c03e 3bc0 9e3d 41de 273e bd83 7c3e

blocks.3.blocks.6.blocks.6.weight f4 [8]
0.957005 0.6904909 0.7771598 1.3081942 0.7624 0.71417457 0.9277512 1.0945698
00000000: 48fe 743f 03c4 303f f2f3 463f e872 a73f
00000010: a52c 433f 25d4 363f 1a81 6d3f dd1a 8c3f

blocks.3.blocks.9.weight f4 [16, 8, 3, 3]
0.053488504 0.19337387 -0.10307304 0.10885397 -0.1097586 0.02553968 -0.1626675 0.047699433
-0.0068464135 -0.0032430668 0.1137527 0.05995452 0.15956348 0.10302032 0.036350302 0.03706017
-0.0018003694 0.1144206 0.093207695 0.0965889 0.18633847 0.037430078 -0.016578492 0.11628557
0.16210234 0.16821586 0.2291201 -0.083529174 -0.046048775 0.008169474 0.014373634 0.02363701
-0.06384953 -0.015486145 -0.002201969 -0.046907544 -0.07675037 -0.004673838 -0.030789437 -0.01727254
-0.15612736 0.09377137 0.03240493 -0.023463752 0.018892001 -0.097495995 0.032079883 0.0036551957
-0.07711453 -0.045368217 0.06813334 -0.19656977 -0.20390405 -0.1497756 -0.103640504 0.05220448
-0.05759229 0.0028002055 -0.013656764 -0.027777677 -0.07392881 -0.0065633436 0.06323374 -0.026659662
0.0135702975 -0.15474722 0.15629436 0.16278082 0.02061154 0.011655547 0.0046603777 0.10595844
-0.09124385 -0.12448974 0.0044223964 0.47666425 0.41856796 0.1351068 0.15736234 0.12375659
0.027344756 -0.14993344 0.0454349 0.098062955 -0.12414875 0.10003202 0.1427152 -0.06933806
-0.085076086 -0.058128487 0.15361306 0.014780715 0.11769696 0.0030154053 -0.098671205 -0.16124924
-0.11065588 -0.31955427 -0.11670075 0.027436621 -0.10906216 0.09648214 -0.16314062 -0.19938448
-0.028655026 -0.17945473 -0.04841776 -0.10861575 -0.15077494 -0.13426104 0.06986792 -0.16243307
-0.24841651 -0.16665387 -0.13713054 -0.102789536 -0.19052802 -0.11838685 0.014788769 0.19599703
-0.1160695 -0.3040333 0.07290596 0.08870854 0.09229653 0.1266139 -0.13615954 -0.068562984
0.14770165 -0.18669476 -0.040371384 -0.06494322 -0.1020238 -0.15351732 -0.016865592 -0.08181347
-0.12196582 0.17073607 -0.11891895 0.049948465 -0.001359975 0.001066446 0.0986865 -0.012444956
-0.07401172 0.03603758 0.09455866 0.11699441 -0.096761174 -0.060586125 0.019550085 0.1271193
-0.017454328 0.040261358 -0.022685515 -0.0433377 0.014759908 -0.05146554 0.12036411 0.16647796
0.02269093 0.207658 -0.038079005 -0.118017055 -0.021055862 -0.057033926 -0.054855365 0.032308385
0.039596107 -0.017471777 0.10496222 -0.082967296 -0.24761073 -0.20701051 0.00032526808 0.19656618
0.13204858 -0.08020062 -0.103919335 -0.26399118 0.054361794 0.09066851 0.21112353 0.030446583
0.06185238 -0.06940136 0.082667775 0.09229337 0.224786 -0.023988888 -0.027631609 0.009515261
-0.036046043 -0.15172464 -0.02023484 0.009446849 -0.0056231366 -0.08208965 0.2439788 0.08237228
0.021678334 0.24869448 0.15883978 0.07536753 0.21719296 0.249505 0.21427965 -0.084250785
0.053560853 0.040898696 -0.15807572 0.07062326 -0.0875722 -0.24047314 -0.0057337973 0.0043670963
-0.07259518 -0.0040795757 0.027451923 -0.04378298 0.062103573 0.0317139 0.087675795 0.09066505
0.122395694 -0.07960602 -0.2340147 -0.10216875 0.008784112 0.06705358 -0.17125112 0.046952166
0.13563542 0.014610715 0.12898292 -0.014444562 0.18365899 -0.002000553 0.13025099 0.21881826
0.0748947 0.15258776 0.10420014 -0.12948382 -0.11739954 -0.360976 0.073540315 0.22830147
0.0018945368 0.015119867 -0.10192924 -0.0030175773 0.03206987 0.024889464 -0.09908999 -0.08525599
00000000: c316 5b3d cd03 463e f517 d3bd d5ee de3d
00000010: 1ec9 e0bd 9738 d13c 4f92 26be 7b60 433d
00000020: e157 e0bb a289 54bb 2df7 e83d df92 753d
00000030: 9c64 233e 51fc d23d 0ee4 143d 68cc 173d
00000040: 5ffa ebba 5955 ea3d ade3 be3d 67d0 c53d
00000050: 83cf 3e3e 4850 193d 9ecf 87bc 2127 ee3d
00000060: 28fe 253e c740 2c3e 769e 6a3e 5811 abbd
00000070: a49d 3cbd 42d9 053c 647f 6b3c 67a2 c13c
00000080: 8bc3 82bd 9ab9 7dbc e94e 10bb 2022 40bd
00000090: 4c2f 9dbd ff26 99bb 213a fcbc 247f 8dbc
000000a0: dadf 1fbe 340b c03d 08bb 043d 0e37 c0bc
000000b0: 66c3 9a3c fbab c7bd 3266 033d 028c 6f3b
000000c0: 39ee 9dbd 06d4 39bd 7e89 8b3d 9649 49be
000000d0: 39cc 50be c65e 19be 7941 d4bd 5dd4 553d
000000e0: e5e5 6bbd a783 373b 9fc0 5fbc 038e e3bc
000000f0: fd67 97bd 5111 d7bb b180 813d 5d65 dabc
00000100: f455 5e3c 0e76 1ebe a10b 203e 04b0 263e
00000110: 88d9 a83c e8f6 3e3c 15b6 983b bd00 d93d
00000120: 0ede babd 7af4 febd c0e9 903b 560d f43e
00000130: 8a4e d63e 7059 0a3e 9823 213e 1874 fd3d
00000140: 1c02 e03c 2788 19be f219 3a3d 3bd5 c83d
00000150: b341 febd 96dd cc3d ef23 123e 1d01 8ebd
00000160: 5f3c aebd 2318 6ebd be4c 1d3e d02a 723c
00000170: 1b0b f13d 1b9e 453b 2114 cabd 851e 25be
00000180: 8d9f e2bd 9e9c a3be ce00 efbd c4c2 e03c
00000190: fb5b dfbd 6e98 c53d 560e 27be 722b 4cbe
000001a0: f2bd eabc fbc2 37be b351 46bd ef71 debd
000001b0: bf64 1abe ba7b 09be e916 8f3d db54 26be
000001c0: e660 7ebe 50a7 2abe f36b 0cbe 5283 d2bd
000001d0: c719 43be ce74 f2bd 984c 723c 72b3 483e
000001e0: d9b5 edbd 41aa 9bbe b84f 953d d3ac b53d
000001f0: f705 bd3d 13a7 013e 686d 0bbe c06a 8cbd
00000200: 1a3f 173e e92c 3fbe 775c 25bd f300 85bd
00000210: dbf1 d0bd a533 1dbe b629 8abc d28d a7bd
00000220: 37c9 f9bd 70d5 2e3e c78b f3bd c396 4c3d
00000230: 3041 b2ba fdc7 8b3a 261c ca3d eee5 4bbc
00000240: 7593 97bd 249c 133d f9a7 c13d c49a ef3d
00000250: b92a c6bd 2829 78bd 8027 a03c 902b 023e
00000260: 61fc 8ebc 18e9 243d f9d6 b9bc df82 31bd
00000270: 8bd3 713c 88cd 52bd 7581 f63d 3379 2a3e
00000280: 54e2 b93c 4ca4 543e bbf8 1bbd edb2 f1bd
00000290: 587d acbc 689c 69bd 05b0 60bd cc55 043d
000002a0: 872f 223d f920 8fbc 6ff6 d63d c2ea a9bd
000002b0: ab8d 7dbe 90fa 53be be88 aa39 a548 493e
000002c0: be37 073e 3940 a4bd a9d3 d4bd da29 87be
000002d0: 79aa 5e3d 69b0 b93d c430 583e 1d6b f93c
000002e0: ec58 7d3d 4d22 8ebd b94d a93d 4e04 bd3d
000002f0: 4d2e 663e 5884 c4bc af5b e2bc e6e5 1b3c
00000300: 04a5 13bd b45d 1bbe 89c3 a5bc f5c6 1a3c
00000310: 4a42 b8bb 9e1e a8bd 94d5 793e ccb2 a83d
00000320: c396 b13c c4a9 7e3e e5a6 223e 4b5a 9a3d
00000330: d567 5e3e 3d7e 7f3e 206c 5b3e ad8b acbd
00000340: a062 5b3d 6485 273d 9ade 21be eea2 903d
00000350: 0e59 b3bd 973e 76be 94e2 bbbb dc19 8f3b
00000360: c8ac 94bd f6ad 85bb dbe2 e03c c855 33bd
00000370: 5160 7e3d 6fe6 013d 5e8f b33d 99ae b93d
00000380: 98aa fa3d 7b08 a3bd 8da1 6fbe d93d d1bd
00000390: 3ceb 0f3c 6353 893d 745c 2fbe ea50 403d
000003a0: 03e4 0a3e c861 6f3c 1914 043e e2a8 6cbc
000003b0: 1a11 3c3e b61b 03bb 8460 053e e511 603e
000003c0: 6462 993d f73f 1c3e e266 d53d 6897 04be
000003d0: 2c6f f0bd d9d1 b8be 4e9c 963d dcc7 693e
000003e0: 1b52 f83a 52b9 773c 47c0 d0bd 8cc2 45bb
000003f0: b25b 033d fde4 cb3c b1ef cabd b19a aebd

blocks.4.blocks.10.bias f4 [16]
0.030061409 0.07314481 0.054771647 -0.023002354 0.7781375 0.20436862 -0.010381927 0.15820222
0.16199051 -0.02005302 -0.049010098 0.064565614 0.03547043 0.004976628 0.109961994 0.15256995
00000000: 5843 f63c f2cc 953d 3c58 603d 6f6f bcbc
00000010: 0534 473f 0246 513e f518 2abc c3ff 213e
00000020: d7e0 253e 3b46 a4bc d0be 48bd fa3a 843d
00000030: 7149 113d fb12 a33b c133 e13d 4c3b 1c3e

blocks.4.blocks.10.running_mean f4 [16]
3.9080343 -0.8682873 1.1211523 -4.86647 7.707099 0.4280267 2.1063645 2.1058426
2.785189 3.6682625 -4.10297 -1.8802503 -2.1980708 -3.3554099 2.0835376 3.9685326
00000000: 3c1d 7a40 1448 5ebf eb81 8f3f 1fba 9bc0
00000010: 8ea0 f640 5126 db3e adce 0640 20c6 0640
00000020: 8940 3240 d0c4 6a40 884b 83c0 0bac f0bf
00000030: 31ad 0cc0 09bf 56c0 ae58 0540 70fc 7d40

blocks.4.blocks.10.running_var f4 [16]
5.8759766 9.328098 12.36754 6.7614703 7.8259335 16.086922 10.194379 10.081652
8.475912 5.678102 4.604108 5.1545186 4.9819093 3.4513988 5.9046807 5.327397
00000000: 0008 bc40 e43f 1541 72e1 4541 f75d d840
00000010: 0c6e fa40 04b2 8041 2d1c 2341 724e 2141
00000020: 569d 0741 03b3 b540 da54 9340 d1f1 a440
00000030: cd6b 9f40 b8e3 5c40 25f3 bc40 097a aa40

blocks.4.blocks.10.weight f4 [16]
0.7268542 1.0439342 1.0428289 0.94280195 0.9377241 1.0322684 0.95961994 0.99479043
0.9956294 0.9487595 1.0449729 1.1784235 0.8667924 0.89716536 0.92464197 0.9211814
00000000: 1e13 3a3f a39f 853f 6b7b 853f 785b 713f
00000010: b00e 703f 5f21 843f a7a9 753f 96aa 7e3f
00000020: 91e1 7e3f e7e1 723f acc1 853f 95d6 963f
00000030: 1be6 5d3f a1ac 653f 56b5 6c3f 8bd2 6b3f

blocks.4.blocks.12.bias f4 [16]
0.00019154818 0.00036557094 1.65811e-05 4.499998e-05 -2.767354e-05 3.1034206e-06 -2.192163e-05 -0.0003024884
0.00017164 -0.00012783296 0.00016031413 -4.221299e-05 -7.736165e-05 -0.00015814087 -0.0001255838 9.5924224e-05
00000000: 53da 4839 1aaa bf39 a417 8b37 5cbe 3c38
00000010: 7a24 e8b7 5c44 5036 58e4 b7b7 4e97 9eb9
00000020: 43fa 3339 e60a 06b9 ff19 2839 da0d 31b8
00000030: 383d a2b8 9ed2 25b9 25af 03b9 ed2a c938
